…
WARNING:tensorflow:From C:\ProgramData\Anaconda3\envs\dl\lib\site-packages\tensorflow\python\ops\nn_impl.py:180: add_dispatch_support.<locals>.wrapper (from tensorflow.python.ops.array_ops) is deprecated and will be removed in a future version.
Instructions for updating:
Use tf.where in 2.0, which has the same broadcast rule as np.where
Model: "model_1"
__________________________________________________________________________________________________
Layer (type)                    Output Shape         Param #     Connected to                     
==================================================================================================
input_1 (InputLayer)            (None, 256, 256, 1)  0                                            
__________________________________________________________________________________________________
conv2d_1 (Conv2D)               (None, 256, 256, 32) 1600        input_1[0][0]                    
__________________________________________________________________________________________________
batch_normalization_1 (BatchNor (None, 256, 256, 32) 128         conv2d_1[0][0]                   
__________________________________________________________________________________________________
activation_1 (Activation)       (None, 256, 256, 32) 0           batch_normalization_1[0][0]      
__________________________________________________________________________________________________
conv2d_2 (Conv2D)               (None, 256, 256, 32) 9248        activation_1[0][0]               
__________________________________________________________________________________________________
concatenate_1 (Concatenate)     (None, 256, 256, 64) 0           conv2d_2[0][0]                   
                                                                 conv2d_1[0][0]                   
__________________________________________________________________________________________________
batch_normalization_2 (BatchNor (None, 256, 256, 64) 256         concatenate_1[0][0]              
__________________________________________________________________________________________________
activation_2 (Activation)       (None, 256, 256, 64) 0           batch_normalization_2[0][0]      
__________________________________________________________________________________________________
conv2d_3 (Conv2D)               (None, 256, 256, 32) 18464       activation_2[0][0]               
__________________________________________________________________________________________________
concatenate_2 (Concatenate)     (None, 256, 256, 96) 0           conv2d_3[0][0]                   
                                                                 conv2d_2[0][0]                   
                                                                 conv2d_1[0][0]                   
__________________________________________________________________________________________________
batch_normalization_3 (BatchNor (None, 256, 256, 96) 384         concatenate_2[0][0]              
__________________________________________________________________________________________________
activation_3 (Activation)       (None, 256, 256, 96) 0           batch_normalization_3[0][0]      
__________________________________________________________________________________________________
conv2d_4 (Conv2D)               (None, 256, 256, 32) 27680       activation_3[0][0]               
__________________________________________________________________________________________________
max_pooling2d_1 (MaxPooling2D)  (None, 128, 128, 32) 0           conv2d_4[0][0]                   
__________________________________________________________________________________________________
batch_normalization_4 (BatchNor (None, 128, 128, 32) 128         max_pooling2d_1[0][0]            
__________________________________________________________________________________________________
activation_4 (Activation)       (None, 128, 128, 32) 0           batch_normalization_4[0][0]      
__________________________________________________________________________________________________
conv2d_5 (Conv2D)               (None, 128, 128, 32) 9248        activation_4[0][0]               
__________________________________________________________________________________________________
concatenate_3 (Concatenate)     (None, 128, 128, 64) 0           conv2d_5[0][0]                   
                                                                 max_pooling2d_1[0][0]            
__________________________________________________________________________________________________
batch_normalization_5 (BatchNor (None, 128, 128, 64) 256         concatenate_3[0][0]              
__________________________________________________________________________________________________
activation_5 (Activation)       (None, 128, 128, 64) 0           batch_normalization_5[0][0]      
__________________________________________________________________________________________________
conv2d_6 (Conv2D)               (None, 128, 128, 32) 18464       activation_5[0][0]               
__________________________________________________________________________________________________
concatenate_4 (Concatenate)     (None, 128, 128, 96) 0           conv2d_6[0][0]                   
                                                                 conv2d_5[0][0]                   
                                                                 max_pooling2d_1[0][0]            
__________________________________________________________________________________________________
batch_normalization_6 (BatchNor (None, 128, 128, 96) 384         concatenate_4[0][0]              
__________________________________________________________________________________________________
activation_6 (Activation)       (None, 128, 128, 96) 0           batch_normalization_6[0][0]      
__________________________________________________________________________________________________
conv2d_7 (Conv2D)               (None, 128, 128, 32) 27680       activation_6[0][0]               
__________________________________________________________________________________________________
max_pooling2d_2 (MaxPooling2D)  (None, 64, 64, 32)   0           conv2d_7[0][0]                   
__________________________________________________________________________________________________
batch_normalization_7 (BatchNor (None, 64, 64, 32)   128         max_pooling2d_2[0][0]            
__________________________________________________________________________________________________
activation_7 (Activation)       (None, 64, 64, 32)   0           batch_normalization_7[0][0]      
__________________________________________________________________________________________________
conv2d_8 (Conv2D)               (None, 64, 64, 64)   18496       activation_7[0][0]               
__________________________________________________________________________________________________
concatenate_5 (Concatenate)     (None, 64, 64, 96)   0           conv2d_8[0][0]                   
                                                                 max_pooling2d_2[0][0]            
__________________________________________________________________________________________________
batch_normalization_8 (BatchNor (None, 64, 64, 96)   384         concatenate_5[0][0]              
__________________________________________________________________________________________________
activation_8 (Activation)       (None, 64, 64, 96)   0           batch_normalization_8[0][0]      
__________________________________________________________________________________________________
conv2d_9 (Conv2D)               (None, 64, 64, 64)   55360       activation_8[0][0]               
__________________________________________________________________________________________________
concatenate_6 (Concatenate)     (None, 64, 64, 160)  0           conv2d_9[0][0]                   
                                                                 conv2d_8[0][0]                   
                                                                 max_pooling2d_2[0][0]            
__________________________________________________________________________________________________
batch_normalization_9 (BatchNor (None, 64, 64, 160)  640         concatenate_6[0][0]              
__________________________________________________________________________________________________
activation_9 (Activation)       (None, 64, 64, 160)  0           batch_normalization_9[0][0]      
__________________________________________________________________________________________________
conv2d_10 (Conv2D)              (None, 64, 64, 64)   92224       activation_9[0][0]               
__________________________________________________________________________________________________
max_pooling2d_3 (MaxPooling2D)  (None, 32, 32, 64)   0           conv2d_10[0][0]                  
__________________________________________________________________________________________________
batch_normalization_10 (BatchNo (None, 32, 32, 64)   256         max_pooling2d_3[0][0]            
__________________________________________________________________________________________________
activation_10 (Activation)      (None, 32, 32, 64)   0           batch_normalization_10[0][0]     
__________________________________________________________________________________________________
conv2d_11 (Conv2D)              (None, 32, 32, 128)  73856       activation_10[0][0]              
__________________________________________________________________________________________________
concatenate_7 (Concatenate)     (None, 32, 32, 192)  0           conv2d_11[0][0]                  
                                                                 max_pooling2d_3[0][0]            
__________________________________________________________________________________________________
batch_normalization_11 (BatchNo (None, 32, 32, 192)  768         concatenate_7[0][0]              
__________________________________________________________________________________________________
activation_11 (Activation)      (None, 32, 32, 192)  0           batch_normalization_11[0][0]     
__________________________________________________________________________________________________
conv2d_12 (Conv2D)              (None, 32, 32, 128)  221312      activation_11[0][0]              
__________________________________________________________________________________________________
concatenate_8 (Concatenate)     (None, 32, 32, 320)  0           conv2d_12[0][0]                  
                                                                 conv2d_11[0][0]                  
                                                                 max_pooling2d_3[0][0]            
__________________________________________________________________________________________________
batch_normalization_12 (BatchNo (None, 32, 32, 320)  1280        concatenate_8[0][0]              
__________________________________________________________________________________________________
activation_12 (Activation)      (None, 32, 32, 320)  0           batch_normalization_12[0][0]     
__________________________________________________________________________________________________
conv2d_13 (Conv2D)              (None, 32, 32, 128)  368768      activation_12[0][0]              
__________________________________________________________________________________________________
max_pooling2d_4 (MaxPooling2D)  (None, 16, 16, 128)  0           conv2d_13[0][0]                  
__________________________________________________________________________________________________
conv2d_14 (Conv2D)              (None, 16, 16, 256)  295168      max_pooling2d_4[0][0]            
__________________________________________________________________________________________________
conv2d_15 (Conv2D)              (None, 16, 16, 256)  590080      conv2d_14[0][0]                  
__________________________________________________________________________________________________
dropout_1 (Dropout)             (None, 16, 16, 256)  0           conv2d_15[0][0]                  
__________________________________________________________________________________________________
up_sampling2d_1 (UpSampling2D)  (None, 32, 32, 256)  0           dropout_1[0][0]                  
__________________________________________________________________________________________________
concatenate_9 (Concatenate)     (None, 32, 32, 384)  0           conv2d_13[0][0]                  
                                                                 up_sampling2d_1[0][0]            
__________________________________________________________________________________________________
batch_normalization_13 (BatchNo (None, 32, 32, 384)  1536        concatenate_9[0][0]              
__________________________________________________________________________________________________
activation_13 (Activation)      (None, 32, 32, 384)  0           batch_normalization_13[0][0]     
__________________________________________________________________________________________________
conv2d_16 (Conv2D)              (None, 32, 32, 128)  442496      activation_13[0][0]              
__________________________________________________________________________________________________
concatenate_10 (Concatenate)    (None, 32, 32, 512)  0           conv2d_16[0][0]                  
                                                                 concatenate_9[0][0]              
__________________________________________________________________________________________________
batch_normalization_14 (BatchNo (None, 32, 32, 512)  2048        concatenate_10[0][0]             
__________________________________________________________________________________________________
activation_14 (Activation)      (None, 32, 32, 512)  0           batch_normalization_14[0][0]     
__________________________________________________________________________________________________
conv2d_17 (Conv2D)              (None, 32, 32, 128)  589952      activation_14[0][0]              
__________________________________________________________________________________________________
concatenate_11 (Concatenate)    (None, 32, 32, 640)  0           conv2d_17[0][0]                  
                                                                 conv2d_16[0][0]                  
                                                                 concatenate_9[0][0]              
__________________________________________________________________________________________________
batch_normalization_15 (BatchNo (None, 32, 32, 640)  2560        concatenate_11[0][0]             
__________________________________________________________________________________________________
activation_15 (Activation)      (None, 32, 32, 640)  0           batch_normalization_15[0][0]     
__________________________________________________________________________________________________
conv2d_18 (Conv2D)              (None, 32, 32, 128)  737408      activation_15[0][0]              
__________________________________________________________________________________________________
up_sampling2d_2 (UpSampling2D)  (None, 64, 64, 128)  0           conv2d_18[0][0]                  
__________________________________________________________________________________________________
concatenate_12 (Concatenate)    (None, 64, 64, 192)  0           conv2d_10[0][0]                  
                                                                 up_sampling2d_2[0][0]            
__________________________________________________________________________________________________
batch_normalization_16 (BatchNo (None, 64, 64, 192)  768         concatenate_12[0][0]             
__________________________________________________________________________________________________
activation_16 (Activation)      (None, 64, 64, 192)  0           batch_normalization_16[0][0]     
__________________________________________________________________________________________________
conv2d_19 (Conv2D)              (None, 64, 64, 64)   110656      activation_16[0][0]              
__________________________________________________________________________________________________
concatenate_13 (Concatenate)    (None, 64, 64, 256)  0           conv2d_19[0][0]                  
                                                                 concatenate_12[0][0]             
__________________________________________________________________________________________________
batch_normalization_17 (BatchNo (None, 64, 64, 256)  1024        concatenate_13[0][0]             
__________________________________________________________________________________________________
activation_17 (Activation)      (None, 64, 64, 256)  0           batch_normalization_17[0][0]     
__________________________________________________________________________________________________
conv2d_20 (Conv2D)              (None, 64, 64, 64)   147520      activation_17[0][0]              
__________________________________________________________________________________________________
concatenate_14 (Concatenate)    (None, 64, 64, 320)  0           conv2d_20[0][0]                  
                                                                 conv2d_19[0][0]                  
                                                                 concatenate_12[0][0]             
__________________________________________________________________________________________________
batch_normalization_18 (BatchNo (None, 64, 64, 320)  1280        concatenate_14[0][0]             
__________________________________________________________________________________________________
activation_18 (Activation)      (None, 64, 64, 320)  0           batch_normalization_18[0][0]     
__________________________________________________________________________________________________
conv2d_21 (Conv2D)              (None, 64, 64, 64)   184384      activation_18[0][0]              
__________________________________________________________________________________________________
up_sampling2d_3 (UpSampling2D)  (None, 128, 128, 64) 0           conv2d_21[0][0]                  
__________________________________________________________________________________________________
concatenate_15 (Concatenate)    (None, 128, 128, 96) 0           conv2d_7[0][0]                   
                                                                 up_sampling2d_3[0][0]            
__________________________________________________________________________________________________
batch_normalization_19 (BatchNo (None, 128, 128, 96) 384         concatenate_15[0][0]             
__________________________________________________________________________________________________
activation_19 (Activation)      (None, 128, 128, 96) 0           batch_normalization_19[0][0]     
__________________________________________________________________________________________________
conv2d_22 (Conv2D)              (None, 128, 128, 32) 27680       activation_19[0][0]              
__________________________________________________________________________________________________
concatenate_16 (Concatenate)    (None, 128, 128, 128 0           conv2d_22[0][0]                  
                                                                 concatenate_15[0][0]             
__________________________________________________________________________________________________
batch_normalization_20 (BatchNo (None, 128, 128, 128 512         concatenate_16[0][0]             
__________________________________________________________________________________________________
activation_20 (Activation)      (None, 128, 128, 128 0           batch_normalization_20[0][0]     
__________________________________________________________________________________________________
conv2d_23 (Conv2D)              (None, 128, 128, 32) 36896       activation_20[0][0]              
__________________________________________________________________________________________________
concatenate_17 (Concatenate)    (None, 128, 128, 160 0           conv2d_23[0][0]                  
                                                                 conv2d_22[0][0]                  
                                                                 concatenate_15[0][0]             
__________________________________________________________________________________________________
batch_normalization_21 (BatchNo (None, 128, 128, 160 640         concatenate_17[0][0]             
__________________________________________________________________________________________________
activation_21 (Activation)      (None, 128, 128, 160 0           batch_normalization_21[0][0]     
__________________________________________________________________________________________________
conv2d_24 (Conv2D)              (None, 128, 128, 32) 46112       activation_21[0][0]              
__________________________________________________________________________________________________
up_sampling2d_4 (UpSampling2D)  (None, 256, 256, 32) 0           conv2d_24[0][0]                  
__________________________________________________________________________________________________
concatenate_18 (Concatenate)    (None, 256, 256, 64) 0           conv2d_4[0][0]                   
                                                                 up_sampling2d_4[0][0]            
__________________________________________________________________________________________________
batch_normalization_22 (BatchNo (None, 256, 256, 64) 256         concatenate_18[0][0]             
__________________________________________________________________________________________________
activation_22 (Activation)      (None, 256, 256, 64) 0           batch_normalization_22[0][0]     
__________________________________________________________________________________________________
conv2d_25 (Conv2D)              (None, 256, 256, 32) 18464       activation_22[0][0]              
__________________________________________________________________________________________________
concatenate_19 (Concatenate)    (None, 256, 256, 96) 0           conv2d_25[0][0]                  
                                                                 concatenate_18[0][0]             
__________________________________________________________________________________________________
batch_normalization_23 (BatchNo (None, 256, 256, 96) 384         concatenate_19[0][0]             
__________________________________________________________________________________________________
activation_23 (Activation)      (None, 256, 256, 96) 0           batch_normalization_23[0][0]     
__________________________________________________________________________________________________
conv2d_26 (Conv2D)              (None, 256, 256, 32) 27680       activation_23[0][0]              
__________________________________________________________________________________________________
concatenate_20 (Concatenate)    (None, 256, 256, 128 0           conv2d_26[0][0]                  
                                                                 conv2d_25[0][0]                  
                                                                 concatenate_18[0][0]             
…
