…
WARNING:tensorflow:From C:\ProgramData\Anaconda3\envs\dl\lib\site-packages\tensorflow\python\ops\nn_impl.py:180: add_dispatch_support.<locals>.wrapper (from tensorflow.python.ops.array_ops) is deprecated and will be removed in a future version.
Instructions for updating:
Use tf.where in 2.0, which has the same broadcast rule as np.where
Model: "model_1"
__________________________________________________________________________________________________
Layer (type)                    Output Shape         Param #     Connected to                     
==================================================================================================
input_1 (InputLayer)            (None, 256, 256, 1)  0                                            
__________________________________________________________________________________________________
conv2d_1 (Conv2D)               (None, 256, 256, 64) 640         input_1[0][0]                    
__________________________________________________________________________________________________
conv2d_2 (Conv2D)               (None, 256, 256, 64) 36928       conv2d_1[0][0]                   
__________________________________________________________________________________________________
max_pooling2d_1 (MaxPooling2D)  (None, 128, 128, 64) 0           conv2d_2[0][0]                   
__________________________________________________________________________________________________
conv2d_3 (Conv2D)               (None, 128, 128, 128 73856       max_pooling2d_1[0][0]            
__________________________________________________________________________________________________
conv2d_4 (Conv2D)               (None, 128, 128, 128 147584      conv2d_3[0][0]                   
__________________________________________________________________________________________________
max_pooling2d_2 (MaxPooling2D)  (None, 64, 64, 128)  0           conv2d_4[0][0]                   
__________________________________________________________________________________________________
conv2d_5 (Conv2D)               (None, 64, 64, 256)  295168      max_pooling2d_2[0][0]            
__________________________________________________________________________________________________
conv2d_6 (Conv2D)               (None, 64, 64, 256)  590080      conv2d_5[0][0]                   
__________________________________________________________________________________________________
max_pooling2d_3 (MaxPooling2D)  (None, 32, 32, 256)  0           conv2d_6[0][0]                   
__________________________________________________________________________________________________
conv2d_7 (Conv2D)               (None, 32, 32, 512)  1180160     max_pooling2d_3[0][0]            
__________________________________________________________________________________________________
conv2d_8 (Conv2D)               (None, 32, 32, 512)  2359808     conv2d_7[0][0]                   
__________________________________________________________________________________________________
max_pooling2d_4 (MaxPooling2D)  (None, 16, 16, 512)  0           conv2d_8[0][0]                   
__________________________________________________________________________________________________
conv2d_9 (Conv2D)               (None, 16, 16, 1024) 4719616     max_pooling2d_4[0][0]            
__________________________________________________________________________________________________
conv2d_10 (Conv2D)              (None, 16, 16, 1024) 9438208     conv2d_9[0][0]                   
__________________________________________________________________________________________________
dropout_1 (Dropout)             (None, 16, 16, 1024) 0           conv2d_10[0][0]                  
__________________________________________________________________________________________________
max_pooling2d_5 (MaxPooling2D)  (None, 8, 8, 1024)   0           dropout_1[0][0]                  
__________________________________________________________________________________________________
conv2d_11 (Conv2D)              (None, 8, 8, 2048)   18876416    max_pooling2d_5[0][0]            
__________________________________________________________________________________________________
conv2d_12 (Conv2D)              (None, 8, 8, 2048)   37750784    conv2d_11[0][0]                  
__________________________________________________________________________________________________
dropout_2 (Dropout)             (None, 8, 8, 2048)   0           conv2d_12[0][0]                  
__________________________________________________________________________________________________
up_sampling2d_1 (UpSampling2D)  (None, 16, 16, 2048) 0           dropout_2[0][0]                  
__________________________________________________________________________________________________
conv2d_13 (Conv2D)              (None, 16, 16, 1024) 8389632     up_sampling2d_1[0][0]            
__________________________________________________________________________________________________
concatenate_1 (Concatenate)     (None, 16, 16, 2048) 0           dropout_1[0][0]                  
                                                                 conv2d_13[0][0]                  
__________________________________________________________________________________________________
conv2d_14 (Conv2D)              (None, 16, 16, 1024) 18875392    concatenate_1[0][0]              
__________________________________________________________________________________________________
conv2d_15 (Conv2D)              (None, 16, 16, 1024) 9438208     conv2d_14[0][0]                  
__________________________________________________________________________________________________
up_sampling2d_2 (UpSampling2D)  (None, 32, 32, 1024) 0           conv2d_15[0][0]                  
__________________________________________________________________________________________________
conv2d_16 (Conv2D)              (None, 32, 32, 512)  2097664     up_sampling2d_2[0][0]            
__________________________________________________________________________________________________
concatenate_2 (Concatenate)     (None, 32, 32, 1024) 0           conv2d_8[0][0]                   
                                                                 conv2d_16[0][0]                  
__________________________________________________________________________________________________
conv2d_17 (Conv2D)              (None, 32, 32, 512)  4719104     concatenate_2[0][0]              
__________________________________________________________________________________________________
conv2d_18 (Conv2D)              (None, 32, 32, 512)  2359808     conv2d_17[0][0]                  
__________________________________________________________________________________________________
up_sampling2d_3 (UpSampling2D)  (None, 64, 64, 512)  0           conv2d_18[0][0]                  
__________________________________________________________________________________________________
conv2d_19 (Conv2D)              (None, 64, 64, 256)  524544      up_sampling2d_3[0][0]            
__________________________________________________________________________________________________
concatenate_3 (Concatenate)     (None, 64, 64, 512)  0           conv2d_6[0][0]                   
                                                                 conv2d_19[0][0]                  
__________________________________________________________________________________________________
conv2d_20 (Conv2D)              (None, 64, 64, 256)  1179904     concatenate_3[0][0]              
__________________________________________________________________________________________________
conv2d_21 (Conv2D)              (None, 64, 64, 256)  590080      conv2d_20[0][0]                  
__________________________________________________________________________________________________
up_sampling2d_4 (UpSampling2D)  (None, 128, 128, 256 0           conv2d_21[0][0]                  
__________________________________________________________________________________________________
conv2d_22 (Conv2D)              (None, 128, 128, 128 131200      up_sampling2d_4[0][0]            
…
conv2d_23 (Conv2D)              (None, 128, 128, 128 295040      concatenate_4[0][0]              
__________________________________________________________________________________________________
conv2d_24 (Conv2D)              (None, 128, 128, 128 147584      conv2d_23[0][0]                  
__________________________________________________________________________________________________
up_sampling2d_5 (UpSampling2D)  (None, 256, 256, 128 0           conv2d_24[0][0]                  
__________________________________________________________________________________________________
conv2d_25 (Conv2D)              (None, 256, 256, 64) 32832       up_sampling2d_5[0][0]            
__________________________________________________________________________________________________
concatenate_5 (Concatenate)     (None, 256, 256, 128 0           conv2d_2[0][0]                   
                                                                 conv2d_25[0][0]                  
__________________________________________________________________________________________________
conv2d_26 (Conv2D)              (None, 256, 256, 64) 73792       concatenate_5[0][0]              
__________________________________________________________________________________________________
conv2d_27 (Conv2D)              (None, 256, 256, 64) 36928       conv2d_26[0][0]                  
__________________________________________________________________________________________________
conv2d_28 (Conv2D)              (None, 256, 256, 2)  1154        conv2d_27[0][0]                  
__________________________________________________________________________________________________
conv2d_29 (Conv2D)              (None, 256, 256, 1)  3           conv2d_28[0][0]                  
==================================================================================================
Total params: 124,362,117
Trainable params: 124,362,117
Non-trainable params: 0
__________________________________________________________________________________________________
2021-05-12 14:43:03.078680: I tensorflow/core/common_runtime/gpu/gpu_device.cc:1640] Found device 0 with properties: 
…
